…
2024-02-13 17:35:17,364 INFO: Dataset PairedStereoImageDataset - Flickr1024-sr-train_baseline is created.
2024-02-13 17:35:17,365 INFO: Training statistics:
	Number of train images: 1600
	Dataset enlarge ratio: 1
	Batch size per gpu: 12
	World size (gpu number): 1
	Require iter number per epoch: 134
	Total epochs: 1493; iters: 200000.
2024-02-13 17:35:17,365 INFO: Dataset PairedStereoImageDataset - Flickr1024-sr-test_baseline is created.
2024-02-13 17:35:17,365 INFO: Number of val images/folders in Flickr1024-sr-test_baseline: 1600
2024-02-13 17:35:21,374 INFO: Network: DataParallel - CVHSSR, with parameters: 678,000
2024-02-13 17:35:21,374 INFO: CVHSSR(
  (intro): Conv2d(3, 48, kernel_size=(3, 3), stride=(1, 1), padding=(1, 1))
  (body): MySequential(
    (0): DropPath(
      (module): CHIMBSR(
        (blk): CHIMB(
          (conv1): Conv2d(48, 96, kernel_size=(1, 1), stride=(1, 1))
          (conv2): Conv2d(96, 96, kernel_size=(3, 3), stride=(1, 1), padding=(1, 1), groups=96)
          (conv3): Conv2d(48, 48, kernel_size=(1, 1), stride=(1, 1))
          (sca1): LKA(
            (conv0): Conv2d(48, 48, kernel_size=(5, 5), stride=(1, 1), padding=(2, 2), groups=48)
            (conv_spatial): Conv2d(48, 48, kernel_size=(7, 7), stride=(1, 1), padding=(9, 9), dilation=(3, 3), groups=48)
            (conv1): Conv2d(48, 48, kernel_size=(1, 1), stride=(1, 1))
          )
          (sca2): Sequential(
            (0): AvgPool2d(kernel_size=[45, 135], base_size=(45, 135), stride=[45, 135], fast_imp=False)
            (1): Conv2d(48, 48, kernel_size=(1, 1), stride=(1, 1))
          )
          (sg): SimpleGate()
          (conv4): Conv2d(48, 96, kernel_size=(1, 1), stride=(1, 1))
          (conv5): Conv2d(96, 96, kernel_size=(3, 3), stride=(1, 1), padding=(1, 1), groups=96)
          (conv6): Conv2d(48, 48, kernel_size=(1, 1), stride=(1, 1))
          (norm1): LayerNorm2d()
          (norm2): LayerNorm2d()
          (dropout1): Identity()
          (dropout2): Identity()
        )
        (fusion): CVIM(
          (norm_l): LayerNorm2d()
          (norm_r): LayerNorm2d()
          (l_proj1): Sequential(
            (0): Conv2d(48, 48, kernel_size=(1, 1), stride=(1, 1))
            (1): Conv2d(48, 48, kernel_size=(3, 3), stride=(1, 1), padding=(1, 1), groups=48)
          )
          (r_proj1): Sequential(
            (0): Conv2d(48, 48, kernel_size=(1, 1), stride=(1, 1))
            (1): Conv2d(48, 48, kernel_size=(3, 3), stride=(1, 1), padding=(1, 1), groups=48)
          )
          (l_proj2): Sequential(
            (0): Conv2d(48, 48, kernel_size=(1, 1), stride=(1, 1))
            (1): Conv2d(48, 48, kernel_size=(3, 3), stride=(1, 1), padding=(1, 1), groups=48)
          )
          (r_proj2): Sequential(
            (0): Conv2d(48, 48, kernel_size=(1, 1), stride=(1, 1))
            (1): Conv2d(48, 48, kernel_size=(3, 3), stride=(1, 1), padding=(1, 1), groups=48)
          )
          (l_proj3): Conv2d(48, 48, kernel_size=(1, 1), stride=(1, 1))
          (r_proj3): Conv2d(48, 48, kernel_size=(1, 1), stride=(1, 1))
        )
      )
    )
    (1): DropPath(
      (module): CHIMBSR(
        (blk): CHIMB(
          (conv1): Conv2d(48, 96, kernel_size=(1, 1), stride=(1, 1))
          (conv2): Conv2d(96, 96, kernel_size=(3, 3), stride=(1, 1), padding=(1, 1), groups=96)
          (conv3): Conv2d(48, 48, kernel_size=(1, 1), stride=(1, 1))
          (sca1): LKA(
            (conv0): Conv2d(48, 48, kernel_size=(5, 5), stride=(1, 1), padding=(2, 2), groups=48)
            (conv_spatial): Conv2d(48, 48, kernel_size=(7, 7), stride=(1, 1), padding=(9, 9), dilation=(3, 3), groups=48)
            (conv1): Conv2d(48, 48, kernel_size=(1, 1), stride=(1, 1))
          )
          (sca2): Sequential(
            (0): AvgPool2d(kernel_size=[45, 135], base_size=(45, 135), stride=[45, 135], fast_imp=False)
            (1): Conv2d(48, 48, kernel_size=(1, 1), stride=(1, 1))
          )
          (sg): SimpleGate()
          (conv4): Conv2d(48, 96, kernel_size=(1, 1), stride=(1, 1))
          (conv5): Conv2d(96, 96, kernel_size=(3, 3), stride=(1, 1), padding=(1, 1), groups=96)
          (conv6): Conv2d(48, 48, kernel_size=(1, 1), stride=(1, 1))
          (norm1): LayerNorm2d()
          (norm2): LayerNorm2d()
          (dropout1): Identity()
          (dropout2): Identity()
        )
        (fusion): CVIM(
          (norm_l): LayerNorm2d()
          (norm_r): LayerNorm2d()
          (l_proj1): Sequential(
            (0): Conv2d(48, 48, kernel_size=(1, 1), stride=(1, 1))
            (1): Conv2d(48, 48, kernel_size=(3, 3), stride=(1, 1), padding=(1, 1), groups=48)
          )
          (r_proj1): Sequential(
            (0): Conv2d(48, 48, kernel_size=(1, 1), stride=(1, 1))
            (1): Conv2d(48, 48, kernel_size=(3, 3), stride=(1, 1), padding=(1, 1), groups=48)
          )
          (l_proj2): Sequential(
            (0): Conv2d(48, 48, kernel_size=(1, 1), stride=(1, 1))
            (1): Conv2d(48, 48, kernel_size=(3, 3), stride=(1, 1), padding=(1, 1), groups=48)
          )
          (r_proj2): Sequential(
            (0): Conv2d(48, 48, kernel_size=(1, 1), stride=(1, 1))
            (1): Conv2d(48, 48, kernel_size=(3, 3), stride=(1, 1), padding=(1, 1), groups=48)
          )
          (l_proj3): Conv2d(48, 48, kernel_size=(1, 1), stride=(1, 1))
          (r_proj3): Conv2d(48, 48, kernel_size=(1, 1), stride=(1, 1))
        )
      )
    )
    (2): DropPath(
      (module): CHIMBSR(
        (blk): CHIMB(
          (conv1): Conv2d(48, 96, kernel_size=(1, 1), stride=(1, 1))
          (conv2): Conv2d(96, 96, kernel_size=(3, 3), stride=(1, 1), padding=(1, 1), groups=96)
          (conv3): Conv2d(48, 48, kernel_size=(1, 1), stride=(1, 1))
          (sca1): LKA(
            (conv0): Conv2d(48, 48, kernel_size=(5, 5), stride=(1, 1), padding=(2, 2), groups=48)
            (conv_spatial): Conv2d(48, 48, kernel_size=(7, 7), stride=(1, 1), padding=(9, 9), dilation=(3, 3), groups=48)
            (conv1): Conv2d(48, 48, kernel_size=(1, 1), stride=(1, 1))
          )
          (sca2): Sequential(
            (0): AvgPool2d(kernel_size=[45, 135], base_size=(45, 135), stride=[45, 135], fast_imp=False)
            (1): Conv2d(48, 48, kernel_size=(1, 1), stride=(1, 1))
          )
          (sg): SimpleGate()
          (conv4): Conv2d(48, 96, kernel_size=(1, 1), stride=(1, 1))
          (conv5): Conv2d(96, 96, kernel_size=(3, 3), stride=(1, 1), padding=(1, 1), groups=96)
          (conv6): Conv2d(48, 48, kernel_size=(1, 1), stride=(1, 1))
          (norm1): LayerNorm2d()
          (norm2): LayerNorm2d()
          (dropout1): Identity()
          (dropout2): Identity()
        )
        (fusion): CVIM(
          (norm_l): LayerNorm2d()
          (norm_r): LayerNorm2d()
          (l_proj1): Sequential(
            (0): Conv2d(48, 48, kernel_size=(1, 1), stride=(1, 1))
            (1): Conv2d(48, 48, kernel_size=(3, 3), stride=(1, 1), padding=(1, 1), groups=48)
          )
          (r_proj1): Sequential(
            (0): Conv2d(48, 48, kernel_size=(1, 1), stride=(1, 1))
            (1): Conv2d(48, 48, kernel_size=(3, 3), stride=(1, 1), padding=(1, 1), groups=48)
          )
          (l_proj2): Sequential(
            (0): Conv2d(48, 48, kernel_size=(1, 1), stride=(1, 1))
            (1): Conv2d(48, 48, kernel_size=(3, 3), stride=(1, 1), padding=(1, 1), groups=48)
          )
          (r_proj2): Sequential(
            (0): Conv2d(48, 48, kernel_size=(1, 1), stride=(1, 1))
            (1): Conv2d(48, 48, kernel_size=(3, 3), stride=(1, 1), padding=(1, 1), groups=48)
          )
          (l_proj3): Conv2d(48, 48, kernel_size=(1, 1), stride=(1, 1))
          (r_proj3): Conv2d(48, 48, kernel_size=(1, 1), stride=(1, 1))
        )
      )
    )
    (3): DropPath(
      (module): CHIMBSR(
        (blk): CHIMB(
          (conv1): Conv2d(48, 96, kernel_size=(1, 1), stride=(1, 1))
          (conv2): Conv2d(96, 96, kernel_size=(3, 3), stride=(1, 1), padding=(1, 1), groups=96)
          (conv3): Conv2d(48, 48, kernel_size=(1, 1), stride=(1, 1))
          (sca1): LKA(
            (conv0): Conv2d(48, 48, kernel_size=(5, 5), stride=(1, 1), padding=(2, 2), groups=48)
            (conv_spatial): Conv2d(48, 48, kernel_size=(7, 7), stride=(1, 1), padding=(9, 9), dilation=(3, 3), groups=48)
            (conv1): Conv2d(48, 48, kernel_size=(1, 1), stride=(1, 1))
          )
          (sca2): Sequential(
            (0): AvgPool2d(kernel_size=[45, 135], base_size=(45, 135), stride=[45, 135], fast_imp=False)
            (1): Conv2d(48, 48, kernel_size=(1, 1), stride=(1, 1))
          )
          (sg): SimpleGate()
          (conv4): Conv2d(48, 96, kernel_size=(1, 1), stride=(1, 1))
          (conv5): Conv2d(96, 96, kernel_size=(3, 3), stride=(1, 1), padding=(1, 1), groups=96)
          (conv6): Conv2d(48, 48, kernel_size=(1, 1), stride=(1, 1))
          (norm1): LayerNorm2d()
          (norm2): LayerNorm2d()
          (dropout1): Identity()
          (dropout2): Identity()
        )
        (fusion): CVIM(
          (norm_l): LayerNorm2d()
          (norm_r): LayerNorm2d()
          (l_proj1): Sequential(
            (0): Conv2d(48, 48, kernel_size=(1, 1), stride=(1, 1))
            (1): Conv2d(48, 48, kernel_size=(3, 3), stride=(1, 1), padding=(1, 1), groups=48)
          )
          (r_proj1): Sequential(
            (0): Conv2d(48, 48, kernel_size=(1, 1), stride=(1, 1))
            (1): Conv2d(48, 48, kernel_size=(3, 3), stride=(1, 1), padding=(1, 1), groups=48)
          )
          (l_proj2): Sequential(
            (0): Conv2d(48, 48, kernel_size=(1, 1), stride=(1, 1))
            (1): Conv2d(48, 48, kernel_size=(3, 3), stride=(1, 1), padding=(1, 1), groups=48)
          )
          (r_proj2): Sequential(
            (0): Conv2d(48, 48, kernel_size=(1, 1), stride=(1, 1))
            (1): Conv2d(48, 48, kernel_size=(3, 3), stride=(1, 1), padding=(1, 1), groups=48)
          )
          (l_proj3): Conv2d(48, 48, kernel_size=(1, 1), stride=(1, 1))
          (r_proj3): Conv2d(48, 48, kernel_size=(1, 1), stride=(1, 1))
        )
      )
    )
    (4): DropPath(
      (module): CHIMBSR(
        (blk): CHIMB(
          (conv1): Conv2d(48, 96, kernel_size=(1, 1), stride=(1, 1))
          (conv2): Conv2d(96, 96, kernel_size=(3, 3), stride=(1, 1), padding=(1, 1), groups=96)
          (conv3): Conv2d(48, 48, kernel_size=(1, 1), stride=(1, 1))
          (sca1): LKA(
            (conv0): Conv2d(48, 48, kernel_size=(5, 5), stride=(1, 1), padding=(2, 2), groups=48)
            (conv_spatial): Conv2d(48, 48, kernel_size=(7, 7), stride=(1, 1), padding=(9, 9), dilation=(3, 3), groups=48)
            (conv1): Conv2d(48, 48, kernel_size=(1, 1), stride=(1, 1))
          )
          (sca2): Sequential(
            (0): AvgPool2d(kernel_size=[45, 135], base_size=(45, 135), stride=[45, 135], fast_imp=False)
            (1): Conv2d(48, 48, kernel_size=(1, 1), stride=(1, 1))
          )
          (sg): SimpleGate()
          (conv4): Conv2d(48, 96, kernel_size=(1, 1), stride=(1, 1))
          (conv5): Conv2d(96, 96, kernel_size=(3, 3), stride=(1, 1), padding=(1, 1), groups=96)
          (conv6): Conv2d(48, 48, kernel_size=(1, 1), stride=(1, 1))
          (norm1): LayerNorm2d()
          (norm2): LayerNorm2d()
          (dropout1): Identity()
          (dropout2): Identity()
        )
        (fusion): CVIM(
          (norm_l): LayerNorm2d()
          (norm_r): LayerNorm2d()
          (l_proj1): Sequential(
            (0): Conv2d(48, 48, kernel_size=(1, 1), stride=(1, 1))
            (1): Conv2d(48, 48, kernel_size=(3, 3), stride=(1, 1), padding=(1, 1), groups=48)
          )
          (r_proj1): Sequential(
            (0): Conv2d(48, 48, kernel_size=(1, 1), stride=(1, 1))
            (1): Conv2d(48, 48, kernel_size=(3, 3), stride=(1, 1), padding=(1, 1), groups=48)
          )
          (l_proj2): Sequential(
            (0): Conv2d(48, 48, kernel_size=(1, 1), stride=(1, 1))
            (1): Conv2d(48, 48, kernel_size=(3, 3), stride=(1, 1), padding=(1, 1), groups=48)
          )
          (r_proj2): Sequential(
            (0): Conv2d(48, 48, kernel_size=(1, 1), stride=(1, 1))
            (1): Conv2d(48, 48, kernel_size=(3, 3), stride=(1, 1), padding=(1, 1), groups=48)
          )
          (l_proj3): Conv2d(48, 48, kernel_size=(1, 1), stride=(1, 1))
          (r_proj3): Conv2d(48, 48, kernel_size=(1, 1), stride=(1, 1))
        )
      )
    )
    (5): DropPath(
      (module): CHIMBSR(
        (blk): CHIMB(
          (conv1): Conv2d(48, 96, kernel_size=(1, 1), stride=(1, 1))
          (conv2): Conv2d(96, 96, kernel_size=(3, 3), stride=(1, 1), padding=(1, 1), groups=96)
          (conv3): Conv2d(48, 48, kernel_size=(1, 1), stride=(1, 1))
          (sca1): LKA(
            (conv0): Conv2d(48, 48, kernel_size=(5, 5), stride=(1, 1), padding=(2, 2), groups=48)
            (conv_spatial): Conv2d(48, 48, kernel_size=(7, 7), stride=(1, 1), padding=(9, 9), dilation=(3, 3), groups=48)
            (conv1): Conv2d(48, 48, kernel_size=(1, 1), stride=(1, 1))
          )
          (sca2): Sequential(
            (0): AvgPool2d(kernel_size=[45, 135], base_size=(45, 135), stride=[45, 135], fast_imp=False)
            (1): Conv2d(48, 48, kernel_size=(1, 1), stride=(1, 1))
          )
          (sg): SimpleGate()
          (conv4): Conv2d(48, 96, kernel_size=(1, 1), stride=(1, 1))
          (conv5): Conv2d(96, 96, kernel_size=(3, 3), stride=(1, 1), padding=(1, 1), groups=96)
          (conv6): Conv2d(48, 48, kernel_size=(1, 1), stride=(1, 1))
          (norm1): LayerNorm2d()
          (norm2): LayerNorm2d()
          (dropout1): Identity()
          (dropout2): Identity()
        )
        (fusion): CVIM(
          (norm_l): LayerNorm2d()
          (norm_r): LayerNorm2d()
          (l_proj1): Sequential(
            (0): Conv2d(48, 48, kernel_size=(1, 1), stride=(1, 1))
            (1): Conv2d(48, 48, kernel_size=(3, 3), stride=(1, 1), padding=(1, 1), groups=48)
          )
          (r_proj1): Sequential(
            (0): Conv2d(48, 48, kernel_size=(1, 1), stride=(1, 1))
            (1): Conv2d(48, 48, kernel_size=(3, 3), stride=(1, 1), padding=(1, 1), groups=48)
          )
          (l_proj2): Sequential(
            (0): Conv2d(48, 48, kernel_size=(1, 1), stride=(1, 1))
            (1): Conv2d(48, 48, kernel_size=(3, 3), stride=(1, 1), padding=(1, 1), groups=48)
          )
          (r_proj2): Sequential(
            (0): Conv2d(48, 48, kernel_size=(1, 1), stride=(1, 1))
            (1): Conv2d(48, 48, kernel_size=(3, 3), stride=(1, 1), padding=(1, 1), groups=48)
          )
          (l_proj3): Conv2d(48, 48, kernel_size=(1, 1), stride=(1, 1))
          (r_proj3): Conv2d(48, 48, kernel_size=(1, 1), stride=(1, 1))
        )
      )
    )
    (6): DropPath(
      (module): CHIMBSR(
        (blk): CHIMB(
          (conv1): Conv2d(48, 96, kernel_size=(1, 1), stride=(1, 1))
          (conv2): Conv2d(96, 96, kernel_size=(3, 3), stride=(1, 1), padding=(1, 1), groups=96)
          (conv3): Conv2d(48, 48, kernel_size=(1, 1), stride=(1, 1))
          (sca1): LKA(
            (conv0): Conv2d(48, 48, kernel_size=(5, 5), stride=(1, 1), padding=(2, 2), groups=48)
            (conv_spatial): Conv2d(48, 48, kernel_size=(7, 7), stride=(1, 1), padding=(9, 9), dilation=(3, 3), groups=48)
            (conv1): Conv2d(48, 48, kernel_size=(1, 1), stride=(1, 1))
          )
          (sca2): Sequential(
            (0): AvgPool2d(kernel_size=[45, 135], base_size=(45, 135), stride=[45, 135], fast_imp=False)
            (1): Conv2d(48, 48, kernel_size=(1, 1), stride=(1, 1))
          )
          (sg): SimpleGate()
          (conv4): Conv2d(48, 96, kernel_size=(1, 1), stride=(1, 1))
          (conv5): Conv2d(96, 96, kernel_size=(3, 3), stride=(1, 1), padding=(1, 1), groups=96)
          (conv6): Conv2d(48, 48, kernel_size=(1, 1), stride=(1, 1))
          (norm1): LayerNorm2d()
          (norm2): LayerNorm2d()
          (dropout1): Identity()
          (dropout2): Identity()
        )
        (fusion): CVIM(
          (norm_l): LayerNorm2d()
          (norm_r): LayerNorm2d()
          (l_proj1): Sequential(
            (0): Conv2d(48, 48, kernel_size=(1, 1), stride=(1, 1))
            (1): Conv2d(48, 48, kernel_size=(3, 3), stride=(1, 1), padding=(1, 1), groups=48)
          )
          (r_proj1): Sequential(
            (0): Conv2d(48, 48, kernel_size=(1, 1), stride=(1, 1))
            (1): Conv2d(48, 48, kernel_size=(3, 3), stride=(1, 1), padding=(1, 1), groups=48)
          )
          (l_proj2): Sequential(
            (0): Conv2d(48, 48, kernel_size=(1, 1), stride=(1, 1))
            (1): Conv2d(48, 48, kernel_size=(3, 3), stride=(1, 1), padding=(1, 1), groups=48)
          )
          (r_proj2): Sequential(
            (0): Conv2d(48, 48, kernel_size=(1, 1), stride=(1, 1))
            (1): Conv2d(48, 48, kernel_size=(3, 3), stride=(1, 1), padding=(1, 1), groups=48)
          )
          (l_proj3): Conv2d(48, 48, kernel_size=(1, 1), stride=(1, 1))
          (r_proj3): Conv2d(48, 48, kernel_size=(1, 1), stride=(1, 1))
        )
      )
    )
    (7): DropPath(
      (module): CHIMBSR(
        (blk): CHIMB(
          (conv1): Conv2d(48, 96, kernel_size=(1, 1), stride=(1, 1))
          (conv2): Conv2d(96, 96, kernel_size=(3, 3), stride=(1, 1), padding=(1, 1), groups=96)
          (conv3): Conv2d(48, 48, kernel_size=(1, 1), stride=(1, 1))
          (sca1): LKA(
            (conv0): Conv2d(48, 48, kernel_size=(5, 5), stride=(1, 1), padding=(2, 2), groups=48)
            (conv_spatial): Conv2d(48, 48, kernel_size=(7, 7), stride=(1, 1), padding=(9, 9), dilation=(3, 3), groups=48)
            (conv1): Conv2d(48, 48, kernel_size=(1, 1), stride=(1, 1))
          )
          (sca2): Sequential(
            (0): AvgPool2d(kernel_size=[45, 135], base_size=(45, 135), stride=[45, 135], fast_imp=False)
            (1): Conv2d(48, 48, kernel_size=(1, 1), stride=(1, 1))
          )
          (sg): SimpleGate()
          (conv4): Conv2d(48, 96, kernel_size=(1, 1), stride=(1, 1))
          (conv5): Conv2d(96, 96, kernel_size=(3, 3), stride=(1, 1), padding=(1, 1), groups=96)
          (conv6): Conv2d(48, 48, kernel_size=(1, 1), stride=(1, 1))
          (norm1): LayerNorm2d()
          (norm2): LayerNorm2d()
          (dropout1): Identity()
          (dropout2): Identity()
        )
        (fusion): CVIM(
          (norm_l): LayerNorm2d()
          (norm_r): LayerNorm2d()
          (l_proj1): Sequential(
            (0): Conv2d(48, 48, kernel_size=(1, 1), stride=(1, 1))
            (1): Conv2d(48, 48, kernel_size=(3, 3), stride=(1, 1), padding=(1, 1), groups=48)
          )
          (r_proj1): Sequential(
            (0): Conv2d(48, 48, kernel_size=(1, 1), stride=(1, 1))
            (1): Conv2d(48, 48, kernel_size=(3, 3), stride=(1, 1), padding=(1, 1), groups=48)
          )
          (l_proj2): Sequential(
            (0): Conv2d(48, 48, kernel_size=(1, 1), stride=(1, 1))
            (1): Conv2d(48, 48, kernel_size=(3, 3), stride=(1, 1), padding=(1, 1), groups=48)
          )
          (r_proj2): Sequential(
            (0): Conv2d(48, 48, kernel_size=(1, 1), stride=(1, 1))
            (1): Conv2d(48, 48, kernel_size=(3, 3), stride=(1, 1), padding=(1, 1), groups=48)
          )
          (l_proj3): Conv2d(48, 48, kernel_size=(1, 1), stride=(1, 1))
          (r_proj3): Conv2d(48, 48, kernel_size=(1, 1), stride=(1, 1))
        )
      )
    )
    (8): DropPath(
      (module): CHIMBSR(
        (blk): CHIMB(
          (conv1): Conv2d(48, 96, kernel_size=(1, 1), stride=(1, 1))
          (conv2): Conv2d(96, 96, kernel_size=(3, 3), stride=(1, 1), padding=(1, 1), groups=96)
          (conv3): Conv2d(48, 48, kernel_size=(1, 1), stride=(1, 1))
          (sca1): LKA(
            (conv0): Conv2d(48, 48, kernel_size=(5, 5), stride=(1, 1), padding=(2, 2), groups=48)
            (conv_spatial): Conv2d(48, 48, kernel_size=(7, 7), stride=(1, 1), padding=(9, 9), dilation=(3, 3), groups=48)
            (conv1): Conv2d(48, 48, kernel_size=(1, 1), stride=(1, 1))
          )
          (sca2): Sequential(
            (0): AvgPool2d(kernel_size=[45, 135], base_size=(45, 135), stride=[45, 135], fast_imp=False)
            (1): Conv2d(48, 48, kernel_size=(1, 1), stride=(1, 1))
          )
          (sg): SimpleGate()
          (conv4): Conv2d(48, 96, kernel_size=(1, 1), stride=(1, 1))
          (conv5): Conv2d(96, 96, kernel_size=(3, 3), stride=(1, 1), padding=(1, 1), groups=96)
          (conv6): Conv2d(48, 48, kernel_size=(1, 1), stride=(1, 1))
          (norm1): LayerNorm2d()
          (norm2): LayerNorm2d()
          (dropout1): Identity()
          (dropout2): Identity()
        )
        (fusion): CVIM(
          (norm_l): LayerNorm2d()
          (norm_r): LayerNorm2d()
          (l_proj1): Sequential(
            (0): Conv2d(48, 48, kernel_size=(1, 1), stride=(1, 1))
            (1): Conv2d(48, 48, kernel_size=(3, 3), stride=(1, 1), padding=(1, 1), groups=48)
          )
          (r_proj1): Sequential(
            (0): Conv2d(48, 48, kernel_size=(1, 1), stride=(1, 1))
            (1): Conv2d(48, 48, kernel_size=(3, 3), stride=(1, 1), padding=(1, 1), groups=48)
          )
          (l_proj2): Sequential(
            (0): Conv2d(48, 48, kernel_size=(1, 1), stride=(1, 1))
            (1): Conv2d(48, 48, kernel_size=(3, 3), stride=(1, 1), padding=(1, 1), groups=48)
          )
          (r_proj2): Sequential(
            (0): Conv2d(48, 48, kernel_size=(1, 1), stride=(1, 1))
            (1): Conv2d(48, 48, kernel_size=(3, 3), stride=(1, 1), padding=(1, 1), groups=48)
          )
          (l_proj3): Conv2d(48, 48, kernel_size=(1, 1), stride=(1, 1))
          (r_proj3): Conv2d(48, 48, kernel_size=(1, 1), stride=(1, 1))
        )
      )
    )
    (9): DropPath(
      (module): CHIMBSR(
        (blk): CHIMB(
          (conv1): Conv2d(48, 96, kernel_size=(1, 1), stride=(1, 1))
          (conv2): Conv2d(96, 96, kernel_size=(3, 3), stride=(1, 1), padding=(1, 1), groups=96)
          (conv3): Conv2d(48, 48, kernel_size=(1, 1), stride=(1, 1))
          (sca1): LKA(
            (conv0): Conv2d(48, 48, kernel_size=(5, 5), stride=(1, 1), padding=(2, 2), groups=48)
            (conv_spatial): Conv2d(48, 48, kernel_size=(7, 7), stride=(1, 1), padding=(9, 9), dilation=(3, 3), groups=48)
            (conv1): Conv2d(48, 48, kernel_size=(1, 1), stride=(1, 1))
          )
          (sca2): Sequential(
            (0): AvgPool2d(kernel_size=[45, 135], base_size=(45, 135), stride=[45, 135], fast_imp=False)
            (1): Conv2d(48, 48, kernel_size=(1, 1), stride=(1, 1))
          )
          (sg): SimpleGate()
          (conv4): Conv2d(48, 96, kernel_size=(1, 1), stride=(1, 1))
          (conv5): Conv2d(96, 96, kernel_size=(3, 3), stride=(1, 1), padding=(1, 1), groups=96)
          (conv6): Conv2d(48, 48, kernel_size=(1, 1), stride=(1, 1))
          (norm1): LayerNorm2d()
          (norm2): LayerNorm2d()
          (dropout1): Identity()
          (dropout2): Identity()
        )
        (fusion): CVIM(
          (norm_l): LayerNorm2d()
          (norm_r): LayerNorm2d()
          (l_proj1): Sequential(
            (0): Conv2d(48, 48, kernel_size=(1, 1), stride=(1, 1))
            (1): Conv2d(48, 48, kernel_size=(3, 3), stride=(1, 1), padding=(1, 1), groups=48)
          )
          (r_proj1): Sequential(
            (0): Conv2d(48, 48, kernel_size=(1, 1), stride=(1, 1))
            (1): Conv2d(48, 48, kernel_size=(3, 3), stride=(1, 1), padding=(1, 1), groups=48)
          )
          (l_proj2): Sequential(
            (0): Conv2d(48, 48, kernel_size=(1, 1), stride=(1, 1))
            (1): Conv2d(48, 48, kernel_size=(3, 3), stride=(1, 1), padding=(1, 1), groups=48)
          )
          (r_proj2): Sequential(
            (0): Conv2d(48, 48, kernel_size=(1, 1), stride=(1, 1))
            (1): Conv2d(48, 48, kernel_size=(3, 3), stride=(1, 1), padding=(1, 1), groups=48)
          )
          (l_proj3): Conv2d(48, 48, kernel_size=(1, 1), stride=(1, 1))
          (r_proj3): Conv2d(48, 48, kernel_size=(1, 1), stride=(1, 1))
        )
      )
    )
    (10): DropPath(
      (module): CHIMBSR(
        (blk): CHIMB(
          (conv1): Conv2d(48, 96, kernel_size=(1, 1), stride=(1, 1))
          (conv2): Conv2d(96, 96, kernel_size=(3, 3), stride=(1, 1), padding=(1, 1), groups=96)
          (conv3): Conv2d(48, 48, kernel_size=(1, 1), stride=(1, 1))
          (sca1): LKA(
            (conv0): Conv2d(48, 48, kernel_size=(5, 5), stride=(1, 1), padding=(2, 2), groups=48)
            (conv_spatial): Conv2d(48, 48, kernel_size=(7, 7), stride=(1, 1), padding=(9, 9), dilation=(3, 3), groups=48)
            (conv1): Conv2d(48, 48, kernel_size=(1, 1), stride=(1, 1))
          )
          (sca2): Sequential(
            (0): AvgPool2d(kernel_size=[45, 135], base_size=(45, 135), stride=[45, 135], fast_imp=False)
            (1): Conv2d(48, 48, kernel_size=(1, 1), stride=(1, 1))
          )
          (sg): SimpleGate()
          (conv4): Conv2d(48, 96, kernel_size=(1, 1), stride=(1, 1))
          (conv5): Conv2d(96, 96, kernel_size=(3, 3), stride=(1, 1), padding=(1, 1), groups=96)
          (conv6): Conv2d(48, 48, kernel_size=(1, 1), stride=(1, 1))
          (norm1): LayerNorm2d()
          (norm2): LayerNorm2d()
          (dropout1): Identity()
          (dropout2): Identity()
        )
        (fusion): CVIM(
          (norm_l): LayerNorm2d()
          (norm_r): LayerNorm2d()
          (l_proj1): Sequential(
            (0): Conv2d(48, 48, kernel_size=(1, 1), stride=(1, 1))
            (1): Conv2d(48, 48, kernel_size=(3, 3), stride=(1, 1), padding=(1, 1), groups=48)
          )
          (r_proj1): Sequential(
            (0): Conv2d(48, 48, kernel_size=(1, 1), stride=(1, 1))
            (1): Conv2d(48, 48, kernel_size=(3, 3), stride=(1, 1), padding=(1, 1), groups=48)
          )
          (l_proj2): Sequential(
            (0): Conv2d(48, 48, kernel_size=(1, 1), stride=(1, 1))
            (1): Conv2d(48, 48, kernel_size=(3, 3), stride=(1, 1), padding=(1, 1), groups=48)
          )
          (r_proj2): Sequential(
            (0): Conv2d(48, 48, kernel_size=(1, 1), stride=(1, 1))
            (1): Conv2d(48, 48, kernel_size=(3, 3), stride=(1, 1), padding=(1, 1), groups=48)
          )
          (l_proj3): Conv2d(48, 48, kernel_size=(1, 1), stride=(1, 1))
          (r_proj3): Conv2d(48, 48, kernel_size=(1, 1), stride=(1, 1))
        )
      )
    )
    (11): DropPath(
      (module): CHIMBSR(
        (blk): CHIMB(
          (conv1): Conv2d(48, 96, kernel_size=(1, 1), stride=(1, 1))
          (conv2): Conv2d(96, 96, kernel_size=(3, 3), stride=(1, 1), padding=(1, 1), groups=96)
          (conv3): Conv2d(48, 48, kernel_size=(1, 1), stride=(1, 1))
          (sca1): LKA(
            (conv0): Conv2d(48, 48, kernel_size=(5, 5), stride=(1, 1), padding=(2, 2), groups=48)
            (conv_spatial): Conv2d(48, 48, kernel_size=(7, 7), stride=(1, 1), padding=(9, 9), dilation=(3, 3), groups=48)
            (conv1): Conv2d(48, 48, kernel_size=(1, 1), stride=(1, 1))
          )
          (sca2): Sequential(
            (0): AvgPool2d(kernel_size=[45, 135], base_size=(45, 135), stride=[45, 135], fast_imp=False)
            (1): Conv2d(48, 48, kernel_size=(1, 1), stride=(1, 1))
          )
          (sg): SimpleGate()
          (conv4): Conv2d(48, 96, kernel_size=(1, 1), stride=(1, 1))
          (conv5): Conv2d(96, 96, kernel_size=(3, 3), stride=(1, 1), padding=(1, 1), groups=96)
          (conv6): Conv2d(48, 48, kernel_size=(1, 1), stride=(1, 1))
          (norm1): LayerNorm2d()
          (norm2): LayerNorm2d()
          (dropout1): Identity()
          (dropout2): Identity()
        )
        (fusion): CVIM(
          (norm_l): LayerNorm2d()
          (norm_r): LayerNorm2d()
          (l_proj1): Sequential(
            (0): Conv2d(48, 48, kernel_size=(1, 1), stride=(1, 1))
            (1): Conv2d(48, 48, kernel_size=(3, 3), stride=(1, 1), padding=(1, 1), groups=48)
          )
          (r_proj1): Sequential(
            (0): Conv2d(48, 48, kernel_size=(1, 1), stride=(1, 1))
            (1): Conv2d(48, 48, kernel_size=(3, 3), stride=(1, 1), padding=(1, 1), groups=48)
          )
          (l_proj2): Sequential(
            (0): Conv2d(48, 48, kernel_size=(1, 1), stride=(1, 1))
            (1): Conv2d(48, 48, kernel_size=(3, 3), stride=(1, 1), padding=(1, 1), groups=48)
          )
          (r_proj2): Sequential(
            (0): Conv2d(48, 48, kernel_size=(1, 1), stride=(1, 1))
            (1): Conv2d(48, 48, kernel_size=(3, 3), stride=(1, 1), padding=(1, 1), groups=48)
          )
          (l_proj3): Conv2d(48, 48, kernel_size=(1, 1), stride=(1, 1))
          (r_proj3): Conv2d(48, 48, kernel_size=(1, 1), stride=(1, 1))
        )
      )
    )
    (12): DropPath(
      (module): CHIMBSR(
        (blk): CHIMB(
          (conv1): Conv2d(48, 96, kernel_size=(1, 1), stride=(1, 1))
          (conv2): Conv2d(96, 96, kernel_size=(3, 3), stride=(1, 1), padding=(1, 1), groups=96)
          (conv3): Conv2d(48, 48, kernel_size=(1, 1), stride=(1, 1))
          (sca1): LKA(
            (conv0): Conv2d(48, 48, kernel_size=(5, 5), stride=(1, 1), padding=(2, 2), groups=48)
            (conv_spatial): Conv2d(48, 48, kernel_size=(7, 7), stride=(1, 1), padding=(9, 9), dilation=(3, 3), groups=48)
            (conv1): Conv2d(48, 48, kernel_size=(1, 1), stride=(1, 1))
          )
          (sca2): Sequential(
            (0): AvgPool2d(kernel_size=[45, 135], base_size=(45, 135), stride=[45, 135], fast_imp=False)
            (1): Conv2d(48, 48, kernel_size=(1, 1), stride=(1, 1))
          )
          (sg): SimpleGate()
          (conv4): Conv2d(48, 96, kernel_size=(1, 1), stride=(1, 1))
          (conv5): Conv2d(96, 96, kernel_size=(3, 3), stride=(1, 1), padding=(1, 1), groups=96)
          (conv6): Conv2d(48, 48, kernel_size=(1, 1), stride=(1, 1))
          (norm1): LayerNorm2d()
          (norm2): LayerNorm2d()
          (dropout1): Identity()
          (dropout2): Identity()
        )
        (fusion): CVIM(
          (norm_l): LayerNorm2d()
          (norm_r): LayerNorm2d()
          (l_proj1): Sequential(
            (0): Conv2d(48, 48, kernel_size=(1, 1), stride=(1, 1))
            (1): Conv2d(48, 48, kernel_size=(3, 3), stride=(1, 1), padding=(1, 1), groups=48)
          )
          (r_proj1): Sequential(
            (0): Conv2d(48, 48, kernel_size=(1, 1), stride=(1, 1))
            (1): Conv2d(48, 48, kernel_size=(3, 3), stride=(1, 1), padding=(1, 1), groups=48)
          )
          (l_proj2): Sequential(
            (0): Conv2d(48, 48, kernel_size=(1, 1), stride=(1, 1))
            (1): Conv2d(48, 48, kernel_size=(3, 3), stride=(1, 1), padding=(1, 1), groups=48)
          )
          (r_proj2): Sequential(
            (0): Conv2d(48, 48, kernel_size=(1, 1), stride=(1, 1))
            (1): Conv2d(48, 48, kernel_size=(3, 3), stride=(1, 1), padding=(1, 1), groups=48)
          )
          (l_proj3): Conv2d(48, 48, kernel_size=(1, 1), stride=(1, 1))
          (r_proj3): Conv2d(48, 48, kernel_size=(1, 1), stride=(1, 1))
        )
      )
    )
    (13): DropPath(
      (module): CHIMBSR(
        (blk): CHIMB(
          (conv1): Conv2d(48, 96, kernel_size=(1, 1), stride=(1, 1))
          (conv2): Conv2d(96, 96, kernel_size=(3, 3), stride=(1, 1), padding=(1, 1), groups=96)
          (conv3): Conv2d(48, 48, kernel_size=(1, 1), stride=(1, 1))
          (sca1): LKA(
            (conv0): Conv2d(48, 48, kernel_size=(5, 5), stride=(1, 1), padding=(2, 2), groups=48)
            (conv_spatial): Conv2d(48, 48, kernel_size=(7, 7), stride=(1, 1), padding=(9, 9), dilation=(3, 3), groups=48)
            (conv1): Conv2d(48, 48, kernel_size=(1, 1), stride=(1, 1))
          )
          (sca2): Sequential(
            (0): AvgPool2d(kernel_size=[45, 135], base_size=(45, 135), stride=[45, 135], fast_imp=False)
            (1): Conv2d(48, 48, kernel_size=(1, 1), stride=(1, 1))
          )
          (sg): SimpleGate()
          (conv4): Conv2d(48, 96, kernel_size=(1, 1), stride=(1, 1))
          (conv5): Conv2d(96, 96, kernel_size=(3, 3), stride=(1, 1), padding=(1, 1), groups=96)
          (conv6): Conv2d(48, 48, kernel_size=(1, 1), stride=(1, 1))
          (norm1): LayerNorm2d()
          (norm2): LayerNorm2d()
          (dropout1): Identity()
          (dropout2): Identity()
        )
        (fusion): CVIM(
          (norm_l): LayerNorm2d()
          (norm_r): LayerNorm2d()
          (l_proj1): Sequential(
            (0): Conv2d(48, 48, kernel_size=(1, 1), stride=(1, 1))
            (1): Conv2d(48, 48, kernel_size=(3, 3), stride=(1, 1), padding=(1, 1), groups=48)
          )
          (r_proj1): Sequential(
            (0): Conv2d(48, 48, kernel_size=(1, 1), stride=(1, 1))
            (1): Conv2d(48, 48, kernel_size=(3, 3), stride=(1, 1), padding=(1, 1), groups=48)
          )
          (l_proj2): Sequential(
            (0): Conv2d(48, 48, kernel_size=(1, 1), stride=(1, 1))
            (1): Conv2d(48, 48, kernel_size=(3, 3), stride=(1, 1), padding=(1, 1), groups=48)
          )
          (r_proj2): Sequential(
            (0): Conv2d(48, 48, kernel_size=(1, 1), stride=(1, 1))
            (1): Conv2d(48, 48, kernel_size=(3, 3), stride=(1, 1), padding=(1, 1), groups=48)
          )
          (l_proj3): Conv2d(48, 48, kernel_size=(1, 1), stride=(1, 1))
          (r_proj3): Conv2d(48, 48, kernel_size=(1, 1), stride=(1, 1))
        )
      )
    )
    (14): DropPath(
      (module): CHIMBSR(
        (blk): CHIMB(
          (conv1): Conv2d(48, 96, kernel_size=(1, 1), stride=(1, 1))
          (conv2): Conv2d(96, 96, kernel_size=(3, 3), stride=(1, 1), padding=(1, 1), groups=96)
          (conv3): Conv2d(48, 48, kernel_size=(1, 1), stride=(1, 1))
          (sca1): LKA(
            (conv0): Conv2d(48, 48, kernel_size=(5, 5), stride=(1, 1), padding=(2, 2), groups=48)
            (conv_spatial): Conv2d(48, 48, kernel_size=(7, 7), stride=(1, 1), padding=(9, 9), dilation=(3, 3), groups=48)
            (conv1): Conv2d(48, 48, kernel_size=(1, 1), stride=(1, 1))
          )
          (sca2): Sequential(
            (0): AvgPool2d(kernel_size=[45, 135], base_size=(45, 135), stride=[45, 135], fast_imp=False)
            (1): Conv2d(48, 48, kernel_size=(1, 1), stride=(1, 1))
          )
          (sg): SimpleGate()
          (conv4): Conv2d(48, 96, kernel_size=(1, 1), stride=(1, 1))
          (conv5): Conv2d(96, 96, kernel_size=(3, 3), stride=(1, 1), padding=(1, 1), groups=96)
          (conv6): Conv2d(48, 48, kernel_size=(1, 1), stride=(1, 1))
          (norm1): LayerNorm2d()
          (norm2): LayerNorm2d()
          (dropout1): Identity()
          (dropout2): Identity()
        )
        (fusion): CVIM(
          (norm_l): LayerNorm2d()
          (norm_r): LayerNorm2d()
          (l_proj1): Sequential(
            (0): Conv2d(48, 48, kernel_size=(1, 1), stride=(1, 1))
            (1): Conv2d(48, 48, kernel_size=(3, 3), stride=(1, 1), padding=(1, 1), groups=48)
          )
          (r_proj1): Sequential(
            (0): Conv2d(48, 48, kernel_size=(1, 1), stride=(1, 1))
            (1): Conv2d(48, 48, kernel_size=(3, 3), stride=(1, 1), padding=(1, 1), groups=48)
          )
          (l_proj2): Sequential(
            (0): Conv2d(48, 48, kernel_size=(1, 1), stride=(1, 1))
            (1): Conv2d(48, 48, kernel_size=(3, 3), stride=(1, 1), padding=(1, 1), groups=48)
          )
          (r_proj2): Sequential(
            (0): Conv2d(48, 48, kernel_size=(1, 1), stride=(1, 1))
            (1): Conv2d(48, 48, kernel_size=(3, 3), stride=(1, 1), padding=(1, 1), groups=48)
          )
          (l_proj3): Conv2d(48, 48, kernel_size=(1, 1), stride=(1, 1))
          (r_proj3): Conv2d(48, 48, kernel_size=(1, 1), stride=(1, 1))
        )
      )
    )
    (15): DropPath(
      (module): CHIMBSR(
        (blk): CHIMB(
          (conv1): Conv2d(48, 96, kernel_size=(1, 1), stride=(1, 1))
          (conv2): Conv2d(96, 96, kernel_size=(3, 3), stride=(1, 1), padding=(1, 1), groups=96)
          (conv3): Conv2d(48, 48, kernel_size=(1, 1), stride=(1, 1))
          (sca1): LKA(
            (conv0): Conv2d(48, 48, kernel_size=(5, 5), stride=(1, 1), padding=(2, 2), groups=48)
            (conv_spatial): Conv2d(48, 48, kernel_size=(7, 7), stride=(1, 1), padding=(9, 9), dilation=(3, 3), groups=48)
            (conv1): Conv2d(48, 48, kernel_size=(1, 1), stride=(1, 1))
          )
          (sca2): Sequential(
            (0): AvgPool2d(kernel_size=[45, 135], base_size=(45, 135), stride=[45, 135], fast_imp=False)
            (1): Conv2d(48, 48, kernel_size=(1, 1), stride=(1, 1))
          )
          (sg): SimpleGate()
          (conv4): Conv2d(48, 96, kernel_size=(1, 1), stride=(1, 1))
          (conv5): Conv2d(96, 96, kernel_size=(3, 3), stride=(1, 1), padding=(1, 1), groups=96)
          (conv6): Conv2d(48, 48, kernel_size=(1, 1), stride=(1, 1))
          (norm1): LayerNorm2d()
          (norm2): LayerNorm2d()
          (dropout1): Identity()
          (dropout2): Identity()
        )
        (fusion): CVIM(
          (norm_l): LayerNorm2d()
          (norm_r): LayerNorm2d()
          (l_proj1): Sequential(
            (0): Conv2d(48, 48, kernel_size=(1, 1), stride=(1, 1))
            (1): Conv2d(48, 48, kernel_size=(3, 3), stride=(1, 1), padding=(1, 1), groups=48)
          )
          (r_proj1): Sequential(
            (0): Conv2d(48, 48, kernel_size=(1, 1), stride=(1, 1))
            (1): Conv2d(48, 48, kernel_size=(3, 3), stride=(1, 1), padding=(1, 1), groups=48)
          )
          (l_proj2): Sequential(
            (0): Conv2d(48, 48, kernel_size=(1, 1), stride=(1, 1))
            (1): Conv2d(48, 48, kernel_size=(3, 3), stride=(1, 1), padding=(1, 1), groups=48)
          )
          (r_proj2): Sequential(
            (0): Conv2d(48, 48, kernel_size=(1, 1), stride=(1, 1))
            (1): Conv2d(48, 48, kernel_size=(3, 3), stride=(1, 1), padding=(1, 1), groups=48)
          )
          (l_proj3): Conv2d(48, 48, kernel_size=(1, 1), stride=(1, 1))
          (r_proj3): Conv2d(48, 48, kernel_size=(1, 1), stride=(1, 1))
        )
      )
    )
  )
  (up): Sequential(
    (0): Conv2d(48, 48, kernel_size=(3, 3), stride=(1, 1), padding=(1, 1))
    (1): PixelShuffle(upscale_factor=4)
  )
)
2024-02-13 17:35:21,379 INFO: Model [ImageRestorationModel] is created.
2024-02-13 17:35:23,492 INFO: Start training from epoch: 0, iter: 0
2024-02-13 17:37:04,621 INFO: [CVHSS..][epoch:  3, iter:     200, lr:(1.000e-04,)] [eta: 1 day, 4:30:24, time (data): 0.470 (0.031)] l_pix: 1.4996e-01 
2024-02-13 17:38:40,638 INFO: [CVHSS..][epoch:  6, iter:     400, lr:(1.000e-04,)] [eta: 1 day, 3:33:01, time (data): 0.446 (0.005)] l_pix: 1.6652e-01 
…
